cpu-bind=MASK - n2gpu1211, task  0  0 [1038180]: mask |----BBBB|BBBBBBBB||BBBB----|--------||--------|--------||--------|--------||||--------|--------||--------|--------||--------|--------||--------|--------|  set
cpu-bind=MASK - n2gpu1211, task  0  0 [1038199]: mask |----BBBB|BBBBBBBB||BBBB----|--------||--------|--------||--------|--------||||--------|--------||--------|--------||--------|--------||--------|--------|  set
[ALE] Version in use: 0.10.1
==== Running training with GRU ====
ActorCritic(
  (cnn): Sequential(
    (0): Conv2d(3, 32, kernel_size=(8, 8), stride=(4, 4))
    (1): ReLU()
    (2): Conv2d(32, 64, kernel_size=(4, 4), stride=(2, 2))
    (3): ReLU()
    (4): Conv2d(64, 64, kernel_size=(3, 3), stride=(1, 1))
    (5): ReLU()
    (6): Flatten(start_dim=1, end_dim=-1)
  )
  (gru): GRU(3136, 256, num_layers=3, batch_first=True)
  (fc): Linear(in_features=256, out_features=512, bias=True)
  (actor): Linear(in_features=512, out_features=3, bias=True)
  (critic): Linear(in_features=512, out_features=1, bias=True)
)
PPO Training:   0%|          | 0/800 [00:00<?, ?update/s]PPO Training:   0%|          | 0/800 [00:03<?, ?update/s, avg_reward=0.11]PPO Training:   0%|          | 1/800 [00:03<50:11,  3.77s/update, avg_reward=0.11]PPO Training:   0%|          | 1/800 [00:07<50:11,  3.77s/update, avg_reward=0.23]PPO Training:   0%|          | 2/800 [00:07<47:15,  3.
…
| 798/800 [49:14<00:07,  3.77s/update, avg_reward=0.81]PPO Training: 100%|█████████▉| 798/800 [49:18<00:07,  3.77s/update, avg_reward=0.82]PPO Training: 100%|█████████▉| 799/800 [49:18<00:03,  3.77s/update, avg_reward=0.82]PPO Training: 100%|█████████▉| 799/800 [49:22<00:03,  3.77s/update, avg_reward=0.82]PPO Training: 100%|██████████| 800/800 [49:22<00:00,  3.79s/update, avg_reward=0.82]PPO Training: 100%|██████████| 800/800 [49:22<00:00,  3.70s/update, avg_reward=0.82]

==== Completed training with GRU ====

==== Running training with minGRU ====
ActorCritic(
  (cnn): Sequential(
    (0): Conv2d(3, 32, kernel_size=(8, 8), stride=(4, 4))
    (1): ReLU()
    (2): Conv2d(32, 64, kernel_size=(4, 4), stride=(2, 2))
    (3): ReLU()
    (4): Conv2d(64, 64, kernel_size=(3, 3), stride=(1, 1))
    (5): ReLU()
    (6): Flatten(start_dim=1, end_dim=-1)
  )
  (gru): StackedMinGRU(
    (blocks): ModuleList(
      (0): MinGRUBlock(
        (min_gru): MinGRU(
          (linear_z): Linear(in_features=3136, out_features=256, bias=True)
          (linear_h): Linear(in_features=3136, out_features=256, bias=True)
        )
        (norm): LayerNorm((256,), eps=1e-05, elementwise_affine=True)
        (res_proj): Linear(in_features=3136, out_features=256, bias=True)
      )
      (1-2): 2 x MinGRUBlock(
        (min_gru): MinGRU(
          (linear_z): Linear(in_features=256, out_features=256, bias=True)
          (linear_h): Linear(in_features=256, out_features=256, bias=True)
        )
        (norm): LayerNorm((256,), eps=1e-05, elementwise_affine=True)
        (res_proj): Identity()
      )
    )
  )
  (fc): Linear(in_features=256, out_features=512, bias=True)
  (actor): Linear(in_features=512, out_features=3, bias=True)
  (critic): Linear(in_features=512, out_features=1, bias=True)
)
PPO Training:   0%|          | 0/800 [00:00<?, ?update/s]PPO Training:   0%|          | 0/800 [00:04<?, ?update/s, avg_reward=0.33]PPO Training:   0%|          | 1/800 [00:04<56:45,  4.26s/update, avg_reward=0.33]PPO Training:   0%|          | 1/800 [00:08<56:45,  4.26s/update, avg_reward=0.33]PPO Training:   0%|          | 2/800 [00:08<56:40,  4.
…
